…
<body_and_hands>身体朝向两个备选商品之间的区域。 手部可能指向、拿起或靠近两个备选商品。 手部或身体在两个选项之间移动，说明还没有锁定单一商品。</body_and_hands>
<belief>Two options remain close, and the decisive difference is not yet clear.</belief>
<desire>see how the product works</desire>
<intention>ask for a demonstration</intention><|im_end|>

[INFO:swift] The SftArguments will be saved in: /root/lanyun-fs/ProactiveIntentWorldModel/checkpoints/ablation_5frame_20260526_0640/v0-20260526-063944/args.json
[INFO:swift] model: PeftModelForCausalLM(
  (base_model): LoraModel(
    (model): Qwen2_5_VLForConditionalGeneration(
      (visual): Qwen2_5_VisionTransformerPretrainedModel(
        (patch_embed): Qwen2_5_VisionPatchEmbed(
          (proj): Conv3d(3, 1280, kernel_size=(2, 14, 14), stride=(2, 14, 14), bias=False)
        )
        (rotary_pos_emb): Qwen2_5_VisionRotaryEmbedding()
        (blocks): ModuleList(
          (0-31): 32 x Qwen2_5_VLVisionBlock(
            (norm1): Qwen2RMSNorm((1280,), eps=1e-06)
            (norm2): Qwen2RMSNorm((1280,), eps=1e-06)
            (attn): Qwen2_5_VLVisionSdpaAttention(
              (qkv): Linear(in_features=1280, out_features=3840, bias=True)
              (proj): Linear(in_features=1280, out_features=1280, bias=True)
            )
            (mlp): Qwen2_5_VLMLP(
              (gate_proj): Linear(in_features=1280, out_features=3420, bias=True)
              (up_proj): Linear(in_features=1280, out_features=3420, bias=True)
              (down_proj): Linear(in_features=3420, out_features=1280, bias=True)
              (act_fn): SiLU()
            )
          )
        )
        (merger): Qwen2_5_VLPatchMerger(
          (ln_q): Qwen2RMSNorm((1280,), eps=1e-06)
          (mlp): Sequential(
            (0): Linear(in_features=5120, out_features=5120, bias=True)
            (1): GELU(approximate='none')
            (2): Linear(in_features=5120, out_features=3584, bias=True)
          )
        )
      )
      (model): Qwen2_5_VLModel(
        (embed_tokens): Embedding(152064, 3584)
        (layers): ModuleList(
          (0-27): 28 x Qwen2_5_VLDecoderLayer(
            (self_attn): Qwen2_5_VLSdpaAttention(
              (q_proj): lora.Linear(
                (base_layer): Linear(in_features=3584, out_features=3584, bias=True)
                (lora_dropout): ModuleDict(
                  (default): Dropout(p=0.05, inplace=False)
                )
                (lora_A): ModuleDict(
                  (default): Linear(in_features=3584, out_features=16, bias=False)
                )
                (lora_B): ModuleDict(
                  (default): Linear(in_features=16, out_features=3584, bias=False)
                )
                (lora_embedding_A): ParameterDict()
                (lora_embedding_B): ParameterDict()
                (lora_magnitude_vector): ModuleDict()
              )
              (k_proj): lora.Linear(
                (base_layer): Linear(in_features=3584, out_features=512, bias=True)
                (lora_dropout): ModuleDict(
                  (default): Dropout(p=0.05, inplace=False)
                )
                (lora_A): ModuleDict(
                  (default): Linear(in_features=3584, out_features=16, bias=False)
                )
                (lora_B): ModuleDict(
                  (default): Linear(in_features=16, out_features=512, bias=False)
                )
                (lora_embedding_A): ParameterDict()
                (lora_embedding_B): ParameterDict()
                (lora_magnitude_vector): ModuleDict()
              )
              (v_proj): lora.Linear(
                (base_layer): Linear(in_features=3584, out_features=512, bias=True)
                (lora_dropout): ModuleDict(
                  (default): Dropout(p=0.05, inplace=False)
                )
                (lora_A): ModuleDict(
                  (default): Linear(in_features=3584, out_features=16, bias=False)
                )
                (lora_B): ModuleDict(
                  (default): Linear(in_features=16, out_features=512, bias=False)
                )
                (lora_embedding_A): ParameterDict()
                (lora_embedding_B): ParameterDict()
                (lora_magnitude_vector): ModuleDict()
              )
              (o_proj): lora.Linear(
                (base_layer): Linear(in_features=3584, out_features=3584, bias=False)
                (lora_dropout): ModuleDict(
                  (default): Dropout(p=0.05, inplace=False)
                )
                (lora_A): ModuleDict(
                  (default): Linear(in_features=3584, out_features=16, bias=False)
                )
                (lora_B): ModuleDict(
                  (default): Linear(in_features=16, out_features=3584, bias=False)
                )
                (lora_embedding_A): ParameterDict()
                (lora_embedding_B): ParameterDict()
                (lora_magnitude_vector): ModuleDict()
              )
              (rotary_emb): Qwen2_5_VLRotaryEmbedding()
            )
            (mlp): Qwen2MLP(
              (gate_proj): lora.Linear(
                (base_layer): Linear(in_features=3584, out_features=18944, bias=False)
                (lora_dropout): ModuleDict(
                  (default): Dropout(p=0.05, inplace=False)
                )
                (lora_A): ModuleDict(
                  (default): Linear(in_features=3584, out_features=16, bias=False)
                )
                (lora_B): ModuleDict(
                  (default): Linear(in_features=16, out_features=18944, bias=False)
                )
                (lora_embedding_A): ParameterDict()
                (lora_embedding_B): ParameterDict()
                (lora_magnitude_vector): ModuleDict()
              )
              (up_proj): lora.Linear(
                (base_layer): Linear(in_features=3584, out_features=18944, bias=False)
                (lora_dropout): ModuleDict(
                  (default): Dropout(p=0.05, inplace=False)
                )
                (lora_A): ModuleDict(
                  (default): Linear(in_features=3584, out_features=16, bias=False)
                )
                (lora_B): ModuleDict(
                  (default): Linear(in_features=16, out_features=18944, bias=False)
                )
                (lora_embedding_A): ParameterDict()
                (lora_embedding_B): ParameterDict()
                (lora_magnitude_vector): ModuleDict()
              )
              (down_proj): lora.Linear(
                (base_layer): Linear(in_features=18944, out_features=3584, bias=False)
                (lora_dropout): ModuleDict(
                  (default): Dropout(p=0.05, inplace=False)
                )
                (lora_A): ModuleDict(
                  (default): Linear(in_features=18944, out_features=16, bias=False)
                )
                (lora_B): ModuleDict(
                  (default): Linear(in_features=16, out_features=3584, bias=False)
                )
                (lora_embedding_A): ParameterDict()
                (lora_embedding_B): ParameterDict()
                (lora_magnitude_vector): ModuleDict()
              )
              (act_fn): SiLU()
            )
            (input_layernorm): Qwen2RMSNorm((3584,), eps=1e-06)
            (post_attention_layernorm): Qwen2RMSNorm((3584,), eps=1e-06)
          )
        )
        (norm): Qwen2RMSNorm((3584,), eps=1e-06)
        (rotary_emb): Qwen2_5_VLRotaryEmbedding()
      )
      (lm_head): Linear(in_features=3584, out_features=152064, bias=False)
    )
  )
)
[INFO:swift] model_parameter_info: PeftModelForCausalLM: 8332.5368M Params (40.3702M Trainable [0.4845%]), 0.0019M Buffers.
No label_names provided for model class `PeftModelForCausalLM`. Since `PeftModel` hides base models input arguments, if label_names is not given, label_names can't be set automatically within `Trainer`. Note that empty label_names list will be used instead.
…
